Model: "model"
__________________________________________________________________________________________________
Layer (type)                    Output Shape         Param #     Connected to                     
==================================================================================================
input_1 (InputLayer)            [(None, 150, 4)]     0                                            
__________________________________________________________________________________________________
conv1d (Conv1D)                 (None, 150, 32)      160         input_1[0][0]                    
__________________________________________________________________________________________________
batch_normalization (BatchNorma (None, 150, 32)      128         conv1d[0][0]                     
__________________________________________________________________________________________________
activation (Activation)         (None, 150, 32)      0           batch_normalization[0][0]        
__________________________________________________________________________________________________
conv1d_2 (Conv1D)               (None, 150, 32)      6176        activation[0][0]                 
                                                                 activation_1[0][0]               
__________________________________________________________________________________________________
batch_normalization_1 (BatchNor (None, 150, 32)      128         conv1d_2[0][0]                   
__________________________________________________________________________________________________
activation_1 (Activation)       (None, 150, 32)      0           batch_normalization_1[0][0]      
__________________________________________________________________________________________________
batch_normalization_2 (BatchNor (None, 150, 32)      128         conv1d_2[1][0]                   
__________________________________________________________________________________________________
activation_2 (Activation)       (None, 150, 32)      0           batch_normalization_2[0][0]      
__________________________________________________________________________________________________
conv1d_3 (Conv1D)               (None, 150, 32)      6176        activation_2[0][0]               
                                                                 activation_3[0][0]               
__________________________________________________________________________________________________
batch_normalization_3 (BatchNor (None, 150, 32)      128         conv1d_3[0][0]                   
__________________________________________________________________________________________________
activation_3 (Activation)       (None, 150, 32)      0           batch_normalization_3[0][0]      
__________________________________________________________________________________________________
batch_normalization_4 (BatchNor (None, 150, 32)      128         conv1d_3[1][0]                   
__________________________________________________________________________________________________
activation_4 (Activation)       (None, 150, 32)      0           batch_normalization_4[0][0]      
__________________________________________________________________________________________________
conv1d_4 (Conv1D)               (None, 150, 32)      6176        activation_4[0][0]               
                                                                 activation_5[0][0]               
__________________________________________________________________________________________________
batch_normalization_5 (BatchNor (None, 150, 32)      128         conv1d_4[0][0]                   
__________________________________________________________________________________________________
activation_5 (Activation)       (None, 150, 32)      0           batch_normalization_5[0][0]      
__________________________________________________________________________________________________
batch_normalization_6 (BatchNor (None, 150, 32)      128         conv1d_4[1][0]                   
__________________________________________________________________________________________________
activation_6 (Activation)       (None, 150, 32)      0           batch_normalization_6[0][0]      
__________________________________________________________________________________________________
conv1d_6 (Conv1D)               (None, 150, 32)      6176        activation_6[0][0]               
                                                                 activation_7[0][0]               
__________________________________________________________________________________________________
batch_normalization_7 (BatchNor (None, 150, 32)      128         conv1d_6[0][0]                   
__________________________________________________________________________________________________
activation_7 (Activation)       (None, 150, 32)      0           batch_normalization_7[0][0]      
__________________________________________________________________________________________________
batch_normalization_8 (BatchNor (None, 150, 32)      128         conv1d_6[1][0]                   
__________________________________________________________________________________________________
activation_8 (Activation)       (None, 150, 32)      0           batch_normalization_8[0][0]      
__________________________________________________________________________________________________
conv1d_7 (Conv1D)               (None, 150, 32)      6176        activation_8[0][0]               
                                                                 activation_9[0][0]               
__________________________________________________________________________________________________
batch_normalization_9 (BatchNor (None, 150, 32)      128         conv1d_7[0][0]                   
__________________________________________________________________________________________________
activation_9 (Activation)       (None, 150, 32)      0           batch_normalization_9[0][0]      
__________________________________________________________________________________________________
batch_normalization_10 (BatchNo (None, 150, 32)      128         conv1d_7[1][0]                   
__________________________________________________________________________________________________
activation_10 (Activation)      (None, 150, 32)      0           batch_normalization_10[0][0]     
__________________________________________________________________________________________________
conv1d_8 (Conv1D)               (None, 150, 32)      6176        activation_10[0][0]              
                                                                 activation_11[0][0]              
__________________________________________________________________________________________________
batch_normalization_11 (BatchNo (None, 150, 32)      128         conv1d_8[0][0]                   
__________________________________________________________________________________________________
activation_11 (Activation)      (None, 150, 32)      0           batch_normalization_11[0][0]     
__________________________________________________________________________________________________
conv1d_5 (Conv1D)               (None, 150, 32)      1056        conv1d_4[1][0]                   
__________________________________________________________________________________________________
conv1d_1 (Conv1D)               (None, 150, 32)      1056        conv1d[0][0]                     
__________________________________________________________________________________________________
conv1d_9 (Conv1D)               (None, 150, 32)      1056        conv1d_8[1][0]                   
__________________________________________________________________________________________________
add (Add)                       (None, 150, 32)      0           conv1d_5[0][0]                   
                                                                 conv1d_1[0][0]                   
__________________________________________________________________________________________________
add_1 (Add)                     (None, 150, 32)      0           conv1d_9[0][0]                   
                                                                 add[0][0]                        
__________________________________________________________________________________________________
conv1d_10 (Conv1D)              (None, 150, 1)       33          add_1[0][0]                      
__________________________________________________________________________________________________
flatten (Flatten)               (None, 150)          0           conv1d_10[0][0]                  
__________________________________________________________________________________________________
dense (Dense)                   (None, 1)            151         flatten[0][0]                    
==================================================================================================
Total params: 42,104
Trainable params: 41,336
Non-trainable params: 768
__________________________________________________________________________________________________
None